…
/home/sss1/anaconda2/lib/python2.7/site-packages/theano/sandbox/cuda/__init__.py:600:
UserWarning: Your cuDNN version is more recent than the one Theano officially
supports. If you see any problems, try updating Theano or downgrading cuDNN to
version 5.
  warnings.warn(warn)
Building model...
Initializing 519 kernels with JASPAR motifs.
____________________________________________________________________________________________________
Layer (type)                     Output Shape          Param #     Connected to                     
====================================================================================================
convolution1d_1 (Convolution1D)  (None, 2961, 1024)    164864
convolution1d_input_1[0][0]      
____________________________________________________________________________________________________
maxpooling1d_1 (MaxPooling1D)    (None, 148, 1024)     0
convolution1d_1[0][0]            
____________________________________________________________________________________________________
convolution1d_2 (Convolution1D)  (None, 1961, 1024)    164864
convolution1d_input_2[0][0]      
____________________________________________________________________________________________________
maxpooling1d_2 (MaxPooling1D)    (None, 98, 1024)      0
convolution1d_2[0][0]            
____________________________________________________________________________________________________
batchnormalization_1 (BatchNormal(None, 246, 1024)     2048        merge_1[0][0]                    
____________________________________________________________________________________________________
dropout_1 (Dropout)              (None, 246, 1024)     0
batchnormalization_1[0][0]       
____________________________________________________________________________________________________
bidirectional_1 (Bidirectional)  (None, 246, 200)      900000
dropout_1[0][0]                  
____________________________________________________________________________________________________
batchnormalization_2 (BatchNormal(None, 246, 200)      400
bidirectional_1[0][0]            
____________________________________________________________________________________________________
dropout_2 (Dropout)              (None, 246, 200)      0
batchnormalization_2[0][0]       
____________________________________________________________________________________________________
flatten_1 (Flatten)              (None, 49200)         0
dropout_2[0][0]                  
____________________________________________________________________________________________________
dense_1 (Dense)                  (None, 1000)          49201000
flatten_1[0][0]                  
____________________________________________________________________________________________________
batchnormalization_3 (BatchNormal(None, 1000)          2000        dense_1[0][0]                    
____________________________________________________________________________________________________
activation_1 (Activation)        (None, 1000)          0
batchnormalization_3[0][0]       
____________________________________________________________________________________________________
dropout_3 (Dropout)              (None, 1000)          0
activation_1[0][0]               
____________________________________________________________________________________________________
dense_2 (Dense)                  (None, 1)             1001
dropout_3[0][0]                  
____________________________________________________________________________________________________
batchnormalization_4 (BatchNormal(None, 1)             2           dense_2[0][0]                    
____________________________________________________________________________________________________
activation_2 (Activation)        (None, 1)             0
batchnormalization_4[0][0]       
====================================================================================================
Total params: 50436179
____________________________________________________________________________________________________
Saved loss plot to IMR90_2016-10-05-23:57:34.png




BEGINNING RETRAINING PHASE.




Building frozen model...
Compiling retraining model...
Positive weight: 21.1152815013  Negative weight: 1.04971344795
…
