…
o backend.
Using gpu device 0: GeForce GTX 1080 (CNMeM is disabled, cuDNN 5005)
Loading data from
/home/sss1/Desktop/projects/DeepInteractions/data/uniform_len/K562/K562_ep_split.h5
Building model...
Initializing 519 kernels with JASPAR motifs.
Compiling model...
____________________________________________________________________________________________________
Layer (type)                     Output Shape          Param #     Connected to                     
====================================================================================================
convolution1d_1 (Convolution1D)  (None, 2971, 1024)    123904                                       
____________________________________________________________________________________________________
maxpooling1d_1 (MaxPooling1D)    (None, 198, 1024)     0                                            
____________________________________________________________________________________________________
dropout_1 (Dropout)              (None, 198, 1024)     0                                            
____________________________________________________________________________________________________
bidirectional_1 (Bidirectional)  (None, 198, 64)       270592                                       
____________________________________________________________________________________________________
dropout_2 (Dropout)              (None, 198, 64)       0                                            
____________________________________________________________________________________________________
convolution1d_2 (Convolution1D)  (None, 1971, 1024)    123904                                       
____________________________________________________________________________________________________
maxpooling1d_2 (MaxPooling1D)    (None, 131, 1024)     0                                            
____________________________________________________________________________________________________
dropout_3 (Dropout)              (None, 131, 1024)     0                                            
____________________________________________________________________________________________________
bidirectional_2 (Bidirectional)  (None, 131, 64)       270592                                       
____________________________________________________________________________________________________
dropout_4 (Dropout)              (None, 131, 64)       0                                            
____________________________________________________________________________________________________
flatten_1 (Flatten)              (None, 21056)         0
merge_1[0][0]                    
____________________________________________________________________________________________________
dense_1 (Dense)                  (None, 925)           19477725
flatten_1[0][0]                  
____________________________________________________________________________________________________
dense_2 (Dense)                  (None, 1)             926
dense_1[0][0]                    
====================================================================================================
Total params: 20267643
____________________________________________________________________________________________________
Running at most 64 epochs...
Train on 100000 samples, validate on 10000 samples
Epoch 1/64
 99900/100000 [============================>.] - ETA: 1s - loss: 0.7056 - acc:
…
