…
.
Using gpu device 0: GeForce GTX 1080 (CNMeM is disabled, cuDNN not available)
Loading data from
/home/sss1/Desktop/projects/DeepInteractions/data/uniform_len/K562/K562_ep_split.h5
Building model...
Initializing 519 kernels with JASPAR motifs.
Compiling model...
____________________________________________________________________________________________________
Layer (type)                     Output Shape          Param #     Connected to                     
====================================================================================================
convolution1d_1 (Convolution1D)  (None, 2961, 1024)    164864                                       
____________________________________________________________________________________________________
maxpooling1d_1 (MaxPooling1D)    (None, 148, 1024)     0                                            
____________________________________________________________________________________________________
convolution1d_2 (Convolution1D)  (None, 1961, 1024)    164864                                       
____________________________________________________________________________________________________
maxpooling1d_2 (MaxPooling1D)    (None, 98, 1024)      0                                            
____________________________________________________________________________________________________
dropout_1 (Dropout)              (None, 246, 1024)     0
merge_1[0][0]                    
____________________________________________________________________________________________________
bidirectional_1 (Bidirectional)  (None, 246, 200)      900000
dropout_1[0][0]                  
____________________________________________________________________________________________________
dropout_2 (Dropout)              (None, 246, 200)      0
bidirectional_1[0][0]            
____________________________________________________________________________________________________
flatten_1 (Flatten)              (None, 49200)         0
dropout_2[0][0]                  
____________________________________________________________________________________________________
dense_1 (Dense)                  (None, 925)           45510925
flatten_1[0][0]                  
____________________________________________________________________________________________________
dense_2 (Dense)                  (None, 1)             926
dense_1[0][0]                    
====================================================================================================
Total params: 46741579
____________________________________________________________________________________________________

Data sizes: 
[X_enhancers_train, X_promoters_train]: [(100000, 3000, 4), (100000, 2000, 4)]
y_train: (100000,)
y_train.mean(): 0.50071
Running at most 64 epochs...
…
